tensorflow2/chapter2/converted_model.tflite (tflite, 408544 bytes, 4 tensors)

sequential/dense/BiasAdd/ReadVariableOp f4 [128]
00000000: f36d b03e 0e3f 2d3e 3a3f 6e3e a7f2 4a3e
00000010: c1c7 ad3d 2598 3e3e 6c6f b03e 461e 363e
00000020: 1963 e43e 5e22 4cbc a0ec ed3e 9a0f d23e
00000030: 964e 8dbe 4e4e f53d 5436 bd3e e7e8 49be
00000040: 47a4 91bc 8cf1 523e 77d3 68be 95aa 6d3e
00000050: 8962 22be 36f7 d03c ed20 84be ee75 bd3e
00000060: 09c1 053e 27ef 913e 53ca 053e c6b8 7c3e
00000070: ac6c 843e 9144 22be 2de2 173e 548e 5a3e
00000080: 035c 7c3e f82a 1c3f b02a 843c e648 473e
00000090: 0eaf bd3e d6fa 0d3e 756a ce3e d20a c43c
000000a0: 4256 ae3b ae50 613c fa8b 11be befa 02bd
000000b0: f025 a63e 74e9 023e b707 1f3f ae12 d83e
000000c0: 932c 23be 291d 32bd 5aba c33e d335 af3e
000000d0: 77ae 003f 8fef 973e 259d 2ebe 189b a73d
000000e0: a808 e93d f543 8f3d 00b1 9b3e aaad b7bc
000000f0: e8d7 3cbd 276a 4c3e 38da ecbc ecbe de3d
00000100: 19bc 803e 4124 c23e 2b74 ad3e f3a0 c23e
00000110: 0cfc 3b3e 8ec9 043d 8fce 0dbe 2a9f 9f3e
00000120: a359 103f 771c 62be 1895 cb3e 4c16 9e3e
00000130: e3ea a0bd 67bb 573d 610a ad3e 0028 d4bd
00000140: 444d 9a3e f244 933e 79fb 2c3c 8f8b 273c
00000150: 28d1 873e ec74 6b3d 4a31 4d3e fc91 b53c
00000160: 78c8 e43d c4e9 613e 3ad2 4ebc 7c45 2a3b
00000170: 9790 083d 38eb e13e bc3e 67be 6552 383e
00000180: 9441 133e 2545 a5bc 09a1 98be 1ec5 c63e
00000190: 5dda d33e 6add 423e 31eb 763c 228d 933e
000001a0: 807c f73d 63ac 663e 6183 b43e 733d 463e
000001b0: 12c4 a93e cacf cbbc 742a cc3e 3bf9 a9be
000001c0: 77fc 21bd b8cb b73e 4538 933e be08 093f
000001d0: 9760 993e 79a0 16bc 1bf4 513d 3e99 2abe
000001e0: 220d 643e a542 1d3c 5b96 3c3e cac7 b0bd
000001f0: a16d 9b3e 696a a4be f42f 993e a11a 78be
0.34458885 0.16918585 0.23266307 0.19819127 0.08485366 0.18612726 0.34460008 0.17784986
0.44606856 -0.012459366 0.46469593 0.41027528 -0.2759902 0.11977826 0.36955512 -0.19717751
-0.017778529 0.20599955 -0.22736917 0.23209603 -0.158579 0.025508504 -0.2580637 0.37004036
0.13061918 0.2850277 0.13065462 0.2467986 0.2586416 -0.15846469 0.14832373 0.21343356
0.24644475 0.61003065 0.016133636 0.19461402 0.3704762 0.13865218 0.40315595 0.02393094
0.0053203413 0.013752146 -0.14213553 -0.031977408 0.3245082 0.12784368 0.62121147 0.4220175
-0.15934972 -0.04348484 0.38228112 0.34220752 0.5026621 0.29674956 -0.17052133 0.08183879
0.11378604 0.06995384 0.30408478 -0.022421677 -0.04610434 0.19962369 -0.028912649 0.10876259
0.25143507 0.37918285 0.33877692 0.3801342 0.18357867 0.03241878 -0.13848327 0.3117612
0.56386775 -0.22081171 0.39762187 0.30876386 -0.07857301 0.052668955 0.3379698 -0.10359192
0.30137074 0.2876354 0.010558003 0.010226144 0.2652676 0.057484552 0.20038334 0.022164337
0.11171049 0.22061831 -0.012623364 0.0025981357 0.033341017 0.4412477 -0.22582525 0.18000181
0.14380485 -0.020174572 -0.2981036 0.38822263 0.41377535 0.19029775 0.015070722 0.28818613
0.12084293 0.22526698 0.35256484 0.19359379 0.33157402 -0.024879355 0.3987614 -0.3319796
-0.03954741 0.35897613 0.28753868 0.53528965 0.29956505 -0.009193533 0.051258188 -0.1666002
0.22270635 0.009598409 0.18416731 -0.08631857 0.30357078 -0.32112435 0.29919398 -0.24228908

sequential/dense_1/BiasAdd/ReadVariableOp f4 [10]
00000000: 245d f13c 423f 7ebe a2f6 b43d 59b2 543e
00000010: c64f 8fbe 6c27 2e3e b5bb 0d3e bff4 2d3e
00000020: ea57 1abe 0072 d2be
0.029463358 -0.24828818 0.08836104 0.20771159 -0.2799055 0.17007226 0.13841136 0.16987894
-0.15072599 -0.411026

sequential/dense/MatMul f4 [128, 784]
00000000: 2e8a 1dbd 97d9 f7bd 7a31 513d a80b 563c
00000010: c652 08bd 7d21 c6bd e8a7 92bd 4ac3 74be
00000020: 128f 9bbe 0f9f 4ebe 3f44 2d3e 5807 e13e
00000030: 63bb b43e f21b 3e3e cbbc 6d3e af3e 493e
00000040: 6e97 103f bb17 b73e 4cb4 4ebd f51d 1b3e
00000050: 49b5 803d 5ad4 a13d a83d f83b 1cb9 25be
00000060: ea1b e2bd 9f88 c8bd a0d0 45bc 0ad0 cb3d
00000070: 87f9 f8bc d16f 833e c0f8 71bc 7b1a b23d
00000080: d612 e7bd 164f a3bd 8c07 b1be 0279 acbe
00000090: e270 80be 7048 3c3d c5d2 be3d c560 5b3e
000000a0: 56ce 723e 9ca3 b03e 0f57 d73e b9dc 943e
000000b0: 705f 803e cdb5 363e b2e0 b53d 322c e83d
000000c0: b927 d03d efd7 003d 0173 df3d fda4 0bbe
000000d0: 3111 3dbd f520 11be 9d58 cbbd aa5f 493d
000000e0: 8317 163e e6aa 083e d01f bc3c 09d4 b5bb
000000f0: 0ef2 0dbe c62c 81bd 8cf9 353d 44f6 823c
00000100: e8c7 67be fb3e 39be 8847 d5bc 2780 b9bd
00000110: 115f 4dbc ecc0 c13d 8668 bb3d 1a00 af3d
00000120: 2807 47bd 48e7 dcbd 7869 39bd db50 73bd
00000130: 93ab 653d fb94 123e 8f78 733e 1e25 623e
00000140: 1f6c 193c 4a17 dd3d 25ef 04bd 38d7 533d
00000150: bc79 ca3d 0653 b73d 6ede c23d 1903 d3bd
00000160: 94a9 bd3d c1fa c73c 9d36 753d a983 e6bd
00000170: a6aa 0abe 6699 f9bd 50f5 bcbd ddba 90bd
00000180: f69b b03c 2508 bdbd 08f0 e2bd 5ac7 3d3c
00000190: d5f3 6bbc f590 b9bd 8d61 4bbd a47f fbbc
000001a0: 0117 88bd a824 2b3d 8b30 bb3d 4412 d43d
000001b0: 89db 1a3e 79e8 3b3d 4310 abbd f7a3 8bbc
000001c0: b08f f83c 6a30 e63c 875d 163d fdad 823c
000001d0: f060 64bc d2c8 ac3d a7dc 6abc bff3 2cbe
000001e0: dbe9 30be eac1 90bc bd89 54bd 06b7 15bd
000001f0: 7603 6abc 0b57 d23c 0179 1ebe 8a2f 1dbe
00000200: 5856 bebd 1722 12be 11d1 12be a745 03be
00000210: 6289 9bbd e1e7 67bd 4e02 153e 4a54 ea3d
00000220: a857 853e b0ed 523e b33d 733d ff52 213c
00000230: fa31 823c 5b12 6c3d d983 4ebb f8ee 2a3d
00000240: 8f39 3b3e 5f44 7e3d f387 bc3d b58c b8bd
00000250: e58b 72be 1ce0 aabb 15ed 15be 5565 97bd
00000260: b1ff 48bd 6e7f 0a3d bfe0 19bd a74d efbd
00000270: e92a bcbd d1db 89bd 7211 17be 179a e6bd
00000280: 4d71 8cbd 4025 e6bd 6659 ee3d 55b1 0a3e
00000290: d427 57ba 8b15 893e 7aa0 4d3c 9e37 cf3b
000002a0: b8bb d53d 000f ca3d 9311 0d3e 371a d73d
000002b0: ce4d d43d 1bee 013e 5c5a 703d 98fc 0bbd
000002c0: b92f 0e3d 9bc5 41bc 01ec f2bd 1300 87bd
000002d0: 87c7 80bb 60fc e7bb dfab 4dbd d8de b2bc
000002e0: b4ae ea39 da23 1e3d 9f9f 223d 64ba 6fbd
000002f0: 15c7 d9bd 1ead 3ebd 24f1 223d b06b d93b
00000300: 7ed1 683e a9d5 6a3e f1d5 983d e47c 3dbe
00000310: a01e be3d 8316 c33d 83c8 113e 66d2 063e
00000320: 6f32 f83d 873a 843d f644 763e a642 96bd
00000330: fbd5 a6bd cccc 2e3d cfcf e23d d860 2abd
00000340: ebc6 003d 0288 2b3e 1d48 293d eba1 673d
00000350: 756b 963a 0955 ae3d a960 233e 2d7d 12bd
00000360: c97e afbd ed36 b63b f5ad d63d 1fbb 02bd
00000370: c079 243e 98c7 923e 3bcf 0c3e 47e6 11be
00000380: 47db e83c c853 663d 6d45 723e db74 f23d
00000390: c666 6c3e 487c 053e f174 d33d 9fef 983d
000003a0: aaa9 9aba 2867 d43d cbbc d13d bbcd 433d
000003b0: e44d 043e 31b1 4f3d f18a 6dbc 11f7 f53c
000003c0: 409b d33d 5593 0d3e 65ca 183e 31f0 95bd
000003d0: 71d3 adbd 9d92 34bc 3058 e93d c932 60bb
000003e0: 1c03 aa3d 3698 6e3d 3b67 113e b3d4 c23d
000003f0: d233 423d f88a 09bd 6013 943d 2c2c 053e
-0.038461857 -0.12102049 0.051072575 0.0130643025 -0.033282064 -0.09674356 -0.07160932 -0.23902622
-0.3038259 -0.20177864 0.16920565 0.43950915 0.35299215 0.18565348 0.2321655 0.19652818
0.56481063 0.35760292 -0.050464913 0.15148146 0.062845774 0.07901831 0.0075757094 -0.16183895
-0.110404804 -0.097916834 -0.012073666 0.0995179 -0.030392421 0.25671247 -0.014768779 0.08696457
-0.112828895 -0.07974069 -0.3457607 -0.33686072 -0.25086123 0.04596752 0.09317545 0.21423633
0.23711523 0.34499824 0.42058608 0.29074648 0.25072813 0.17842789 0.08880748 0.113365546
0.101638265 0.03145593 0.10910607 -0.13637157 -0.046158973 -0.14172728 -0.09929011 0.049163498
0.14657407 0.13346443 0.022964388 -0.005548958 -0.13861868 -0.06307368 0.04442744 0.01598657
-0.22634852 -0.18090431 -0.026035085 -0.09057646 -0.012534873 0.09460625 0.09150796 0.08544941
-0.04859081 -0.10786301 -0.0452666 -0.05940328 0.05607183 0.14314644 0.23776458 0.22084472
0.009364157 0.10795458 -0.03245463 0.05171892 0.098865 0.08951382 0.09515081 -0.10303325
0.0926086 0.024411561 0.059866536 -0.11255581 -0.1354166 -0.121874616 -0.09226477 -0.07066891
0.021558743 -0.09230069 -0.110809386 0.011583174 -0.014401396 -0.090608515 -0.04965358 -0.030700512
-0.06645013 0.041783005 0.09140118 0.103550464 0.15122809 0.045876 -0.08352711 -0.017045958
0.030341953 0.028099257 0.03671029 0.015952105 -0.013939127 0.08436741 -0.014334834 -0.16889857
-0.17276709 -0.01767059 -0.05188917 -0.036551498 -0.014283052 0.025676271 -0.15475847 -0.15350166
-0.092938125 -0.14270817 -0.14337565 -0.12819539 -0.07594563 -0.05661762 0.1455166 0.11441858
0.2604344 0.20598483 0.059385013 0.009846448 0.015892971 0.057634693 -0.0031511693 0.041731805
0.18283676 0.062076923 0.09205618 -0.09011213 -0.23686178 -0.005214704 -0.14641221 -0.073923744
-0.04907197 0.033812933 -0.03756785 -0.11684733 -0.09187872 -0.0673138 -0.14752749 -0.11259859
-0.06857548 -0.112375736 0.11638145 0.1354421 -0.0008207534 0.26774248 0.012550468 0.0063237688
0.10436195 0.09866142 0.13776235 0.10503047 0.103664026 0.12688486 0.058679923 -0.03417644
0.03471348 -0.011826898 -0.118614204 -0.06591811 -0.0039300355 -0.007079646 -0.050212737 -0.021834776
0.00044762122 0.03860841 0.039703008 -0.058527365 -0.10633675 -0.046551816 0.03978075 0.006635152
0.22736165 0.22933067 0.07462681 -0.18504673 0.09283185 0.09525778 0.14236645 0.13166198
0.121189944 0.06456476 0.24049744 -0.07336931 -0.08146282 0.04267578 0.110747926 -0.041596264
0.031439703 0.16751102 0.04132854 0.0565509 0.0011476116 0.08512313 0.15954842 -0.03576391
-0.08569104 0.005560747 0.104823984 -0.031916734 0.16062069 0.28667903 0.13750927 -0.14248
0.028424872 0.056232244 0.23659296 0.11838695 0.2308608 0.13035691 0.10325039 0.07467579
-0.0011799831 0.10371238 0.102410875 0.04780362 0.12920338 0.050706092 -0.014498458 0.030025037
0.10332346 0.13825734 0.14920957 -0.073212035 -0.08487595 -0.011021283 0.113937736 -0.0034209958
0.08301374 0.05825063 0.14199536 0.095132254 0.0474127 -0.033579797 0.07230258 0.13005131

sequential/dense_1/MatMul f4 [10, 128]
00000000: 1ca1 ca3e ab4d a43e 79b0 2a3e 8abc 293e
00000010: 3a27 14be 641f 87be b45a 0e3e 84fb 2b3d
00000020: d0ea 9d3d cc8f 423e 4a51 f73d e0d1 543e
00000030: d7cb 823c 064a 98bd 6838 7e3e 9c6a 4b3e
00000040: d648 f03c ddd8 8cbe 5259 a9bc 9e9f 26be
00000050: 8b5a 43bd 4010 36bf 6329 df3b 2001 6cbd
00000060: b56e 3abe 8364 8f3d 254e 3abe 0aff 373e
00000070: 49b1 3abe e9ff 6f3d 144e 563d cc22 15be
00000080: de74 d63b b448 cbbe c918 9abd 3763 9dbd
00000090: adaf e4bd 53d9 4c3e 1a3c 973e 1de6 f3bd
000000a0: 4211 7bbe 1ef6 a73d d303 26be aaa7 533d
000000b0: 9aa6 673e ea39 923c 2715 c5be 8d5a 103e
000000c0: 45aa 70be 6c13 923d cd51 143e e662 3a3e
000000d0: 61ba 413e 2b97 00be 46a2 16be 183b f63d
000000e0: 4e83 b23c 4378 3ebd 6a8a 05be 4b20 f93d
000000f0: 1cf2 ebbd 8a9c 603e b2af eb3c 1211 89be
00000100: 4bf1 873d 858c 2e3e 79e0 003e 3ba3 7fbe
00000110: 113c d5be fc99 21be 5492 6fbe ed73 3abd
00000120: 1244 593e fcdb 18be 0af9 df3d ef2e 96bb
00000130: de05 0f3e 40e5 86be 1d59 3a3e 2eea 1cbc
00000140: 496b 01be 9978 afbd 167e 45be 8794 83be
00000150: 7f87 b3be 3e8a 8ebd dd2d 08bf ddc9 843c
00000160: 55f7 f0bc 70a3 89bd f4aa 9fbd 8d21 96be
00000170: b5d6 51bd ca7c 35be 359a c1bd d2b9 33be
00000180: cefc 10be 9d45 95bc 498d 1bbd 820e ae3d
00000190: a07a 43bd b34a 26be 445b c8bd 55c7 d0bc
000001a0: 2fc6 063e 0b07 8ebe efb1 dd3d 819c db3d
000001b0: a5f3 583d 6b93 f2bc d594 cdbe 9a93 773d
000001c0: 2f43 84bf 8b8f 853e af3a 72be edde 75be
000001d0: 077a 17be 165b 0f3e 9a2c 78be 260e 9a3d
000001e0: 56cc 853d 5451 1cbe fa85 123e f345 fc3c
000001f0: ac97 bfbe cd60 a2bd cbe6 93be e82a 9b3d
00000200: 55ce 2d3e 7fa0 433e 333f 30be bc69 883e
00000210: b378 bf3e 5ef6 acbd 3db5 bdbe f226 05be
00000220: cf91 cabc b9f9 393e ea46 c6be 5526 893c
00000230: a480 89be b2a5 173e 5123 3abe e2a1 6bbe
00000240: cdcc 4bbe 18fc 8ebc db7a 0a3e 27cb c33d
00000250: c121 463e 3f01 24be 8715 cfbe a107 27bf
00000260: 4731 133d d7c0 dc3e 4e08 ccbe 3914 35be
00000270: 97b9 883e d7e6 8e3e 7b1c 1fbe 74fc 93bd
00000280: e969 b5be 5aad dabe e85b 25be e190 84be
00000290: 94eb fbbe c4ea b43c 57ca 5bbe fd18 133e
000002a0: d770 e2be a08a 5f3e 4b2f 273f 29ed d93d
000002b0: 429d 39bf 79aa 76be 8de8 60bf 58e3 97be
000002c0: 6eb7 7a3d 5f6f b0be 1f58 acbe 1dc4 ddbe
000002d0: 9b43 89be 9e43 d53b b34f a4bd 1c3b 30be
000002e0: 0144 ddbe 4dec 77be 4782 93be 9161 d3bd
000002f0: d508 a9be a7a6 7abd d368 f73d 6b7a 00be
00000300: df0f c6bd f5f7 52be 8987 12bf 48ea 83bf
00000310: 7b63 33be 7443 053f 68ed 1cbc b8d9 8bbe
00000320: a336 ee3d 1bac 343e d0a7 8bbe fdd6 b7be
00000330: 96d3 88be 526b d2bb 5961 0ebe 68d2 a43e
00000340: 461c b9bd 9f05 36bd 7ee1 09be 7dfc a7bd
00000350: 78c0 40bd 248e 83be e4ff cfbe a5aa 7c3e
00000360: c5a4 9c3e 9fda fd3d 386c e7bd 7081 0c3f
00000370: ce92 d6bd e614 6d3e 59f5 3f3d 4452 98be
00000380: 909c a03d 332b f73d f7c1 e03d 48a3 9bbe
00000390: 85cf a7bd 5dad 75be c152 3fbe d202 aebe
000003a0: 8f2b 2c3e ce09 7cbd 75d5 a83c a893 4b3e
000003b0: 7c07 40bd 7ba8 cebd 59b8 c9bd 3d7a 32bd
000003c0: 80ad 92bf 4ef2 ccbd e2f5 c13d ef4d 3dbf
000003d0: 3b6a 873e 20d2 3dbe 14a3 88bd 523f 81be
000003e0: 12bc c53d 8fe0 bfbd 58ee 313e a807 733e
000003f0: 01f4 8f3e 5729 8b3e 9ca2 cd3d fa41 18be
0.39576042 0.32090506 0.16668881 0.16575828 -0.14468089 -0.26391137 0.13901788 0.04198791
0.077108026 0.19000167 0.120760515 0.20783186 0.015966339 -0.07435994 0.24826205 0.19864887
0.029331606 -0.27509204 -0.020672474 -0.16271827 -0.04769377 -0.71118546 0.0068103536 -0.05761826
-0.18206294 0.07001593 -0.18193872 0.17968383 -0.18231691 0.058593664 0.052320555 -0.14564055
0.0065446934 -0.39703906 -0.07524259 -0.07684939 -0.1116632 0.20004778 0.2953804 -0.11909125
-0.24518302 0.0820124 -0.16212396 0.05167357 0.22622147 0.017849881 -0.384927 0.14097042
-0.23502453 0.07132611 0.1448433 0.1820179 0.18918754 -0.12557666 -0.1471034 0.1202299
0.021791127 -0.04650141 -0.13041082 0.121643625 -0.11520788 0.21934715 0.028770301 -0.26770836
0.0663782 0.17045791 0.1258563 -0.24964611 -0.4164739 -0.15781397 -0.23395663 -0.04552071
0.21217373 -0.14927667 0.10936172 -0.0045832316 0.13967082 -0.2634678 0.18198057 -0.009577317
-0.12638582 -0.08567924 -0.19286379 -0.25699255 -0.35064313 -0.06959961 -0.5319498 0.016209537
-0.029414812 -0.06720626 -0.077962786 -0.29322472 -0.05123015 -0.17723384 -0.09453241 -0.17551354
-0.14158937 -0.01822167 -0.037976537 0.08498861 -0.047724366 -0.16239433 -0.097830325 -0.025485674
0.13161539 -0.27739748 0.10824954 0.1072321 0.052966733 -0.02961131 -0.40152612 0.0604435
-1.0333003 0.26086077 -0.23655199 -0.2401082 -0.14792643 0.1399959 -0.24235764 0.0752223
0.065331146 -0.15265399 0.1430892 0.030795073 -0.37420404 -0.079286195 -0.2888702 0.07576543
0.1697324 0.19104193 -0.17211609 0.2664317 0.37396774 -0.08445428 -0.37052336 -0.13003138
-0.02472773 0.18161668 -0.38725978 0.016741911 -0.26855958 0.14809301 -0.18177535 -0.23010972
-0.19902344 -0.017454192 0.13523428 0.095602326 0.19348814 -0.160161 -0.40446112 -0.65246016
0.035935666 0.43115875 -0.39850086 -0.17683496 0.26704094 0.27910492 -0.15538208 -0.07225886
-0.35432366 -0.42710382 -0.1614834 -0.25891784 -0.4920317 0.022084601 -0.21463905 0.14365001
-0.44226715 0.21830225 0.6530654 0.10640938 -0.7250558 -0.24088468 -0.87854844 -0.29665637
0.06121009 -0.3445997 -0.3366098 -0.43313685 -0.2680939 0.0065083047 -0.08023014 -0.17210048
-0.43215945 -0.24211235 -0.2881033 -0.10321344 -0.3301455 -0.06119409 0.120805405 -0.12546699
-0.09670996 -0.206024 -0.5723806 -1.0305872 -0.17518418 0.5205605 -0.009578086 -0.27314544
0.11631515 0.17643778 -0.27276468 -0.3590621 -0.26723927 -0.006421485 -0.13904323 0.32191777
-0.09038596 -0.044438954 -0.13464925 -0.08202455 -0.047058553 -0.25694382 -0.40624917 0.2467447
0.3059446 0.12395214 -0.11299938 0.54885006 -0.104772195 0.23152503 0.04686484 -0.29750264
0.07842362 0.120687865 0.10974496 -0.3039801 -0.08193878 -0.23991914 -0.18683912 -0.33986527
0.16813491 -0.061532788 0.020609597 0.19880545 -0.046882138 -0.10090729 -0.09849615 -0.043573607
-1.1459198 -0.100071535 0.094707265 -0.7394704 0.26448235 -0.18537188 -0.0667173 -0.25243622
0.09655012 -0.09369003 0.17376077 0.2373339 0.28115848 0.27179977 0.10040781 -0.14868918
